data.pth (torch, 5930 bytes, 6 tensors)

l1.weight f4 [8, 64]
000000 91 a1 2e 3f 58 be 5a 3f d4 6a df be 61 d8 31 3e
       0.6821528 0.8544669 -0.4363619 0.17367698
000010 0d 6e 00 bf 8d 5a 9b 3e 75 4f 91 be 9f c9 0b bf
       -0.50167924 0.30342522 -0.28380933 -0.54604524
000020 36 dc 2e bf 4e 33 82 3e 5f 8d a5 be ff aa a9 be
       -0.68304765 0.25429767 -0.3233442 -0.33138272
000030 14 60 55 be d5 87 19 3f 4e 50 55 be 57 6f ac be
       -0.20837432 0.5997289 -0.20831415 -0.33678696
000040 44 f3 63 be fa 66 f7 3e 0c 74 48 bd 8c d5 19 3f
       -0.22260767 0.48320752 -0.048938796 0.6009147
000050 7d 52 b1 be f7 e3 2e bf 71 65 a8 3e bb cf 2e bf
       -0.34633246 -0.68316597 0.32889894 -0.6828572
000060 26 bc 0a 3f ca 21 2d bf 2d a7 13 bf db 5c c9 bd
       0.5419334 -0.67629683 -0.57676965 -0.09832164
000070 81 b7 86 3e cf fa 4e 3e fa 8f 8e 3d 6c f3 39 3f
       0.26311877 0.20212863 0.06961055 0.7263706
000080 3a c5 17 3f 3f b7 c6 be 09 0a 3e 3e 40 12 d4 3e
       0.5928532 -0.3881168 0.18558516 0.41420174
000090 a2 d8 85 be b5 91 ea 3e b4 94 44 3e f8 66 6a be
       -0.2614184 0.4581429 0.1919735 -0.22890842
0000a0 c1 e5 82 be 86 23 6d be 37 4e 6d 3e 1b 5c b2 3e
       -0.25565913 -0.23158082 0.23174368 0.34835896
0000b0 aa 0c 6a be 81 35 1c 3f 77 e7 8a 3e 4d a5 d6 be
       -0.22856393 0.6101914 0.2712972 -0.4192299
0000c0 f4 4e 1b 3f 38 fa 63 be 8c bc b8 3e 45 4c 8c 3f
       0.6066735 -0.2226342 0.3608135 1.0960776
0000d0 5c e4 0f 3f 80 b6 ae 3e b7 e6 cc be f4 a4 aa be
       0.56207824 0.3412361 -0.4001977 -0.33328974
0000e0 45 2d 4e 3e 83 91 b8 be a9 dc df be 80 d3 74 be
       0.20134456 -0.36048517 -0.43723038 -0.23908806
0000f0 cd 96 13 be 91 23 91 3e 82 c7 99 3e 85 9e b1 bd
       -0.14412995 0.28347448 0.30035025 -0.08672813
000100 dd fe 2f 3e 01 84 a4 bc ee 05 e5 3e a7 10 a9 3e
       0.17187066 -0.020082476 0.44731086 0.33020517
000110 55 62 c7 3e 33 61 c2 3e 5c 64 9f be 8d 71 a5 3d
       0.3894221 0.37964782 -0.31131256 0.08078299
000120 25 cc d8 be 4a b7 e5 bd 4e 56 ef be ba 0b db 3e
       -0.4234325 -0.112166 -0.46745533 0.42782384
000130 a2 dc 27 3f 51 2c 47 3f 96 1a ae 3e ba 74 4e be
       0.65571034 0.77801996 0.34004658 -0.20161715
000140 61 76 b4 3e 61 26 f5 3e 45 0c 39 3f a3 4a fe 3b
       0.35246566 0.47880843 0.72284347 0.0077603622
000150 f6 35 4f be be 7a d3 be cd 23 07 3f e2 bd d8 be
       -0.20235428 -0.41304582 0.52789 -0.4233237
000160 f8 cc 90 be ab b3 d8 be 69 b8 d8 be e5 fc 0b bf
       -0.2828138 -0.42324576 -0.42328194 -0.5468276
000170 c8 ea 8b bd 5c 7a 56 3e eb 44 24 3e 50 de 63 bd
       -0.0683189 0.20945114 0.16041915 -0.055631936
000180 18 44 06 be 76 97 ab be 2c 90 2d 3e 88 ed 1c be
       -0.13111913 -0.33513993 0.16949528 -0.15324986
000190 cf 67 e0 3e bb 24 92 3e ec 62 d0 bd e9 6d ee 3e
       0.438292 0.28543648 -0.10175118 0.4656823
0001a0 30 3b 59 bc 1e 81 81 bd e1 7f d0 3e 3f d2 02 3f
       -0.01325874 -0.06323455 0.40722564 0.5110206
0001b0 78 55 a1 3e 51 48 20 3f 10 fb c0 3e f7 2b 35 be
       0.3151052 0.62610346 0.37691545 -0.17692553
0001c0 77 ee f1 bd 2c e1 cd 3e bf e7 59 3e 25 cc d8 be
       -0.11813062 0.40210855 0.2127981 -0.4234325
0001d0 14 0b 54 be 80 2b 5b 3e c6 35 83 be 1f 27 3e 3f
       -0.20707351 0.21403313 -0.25626963 0.74278444
0001e0 72 69 33 3e ef c0 65 3f 98 4c cb be 53 a7 08 3f
       0.17520693 0.8974752 -0.39706874 0.53380316
0001f0 62 2d fa bd 22 20 f8 3e 37 be b5 3d 3b 6a 00 bf
       -0.12215687 0.48462015 0.08874171 -0.50162095
000200 da d1 03 3e d4 5c 36 3e 72 64 97 3d 78 01 24 3f
       0.12873021 0.17808849 0.07392205 0.6406474
000210 06 b3 26 be be e9 2d 3f 53 7d 9d be 29 de bc 3e
       -0.1627923 0.6793479 -0.30759677 0.36888245
000220 90 6e 69 3f cc 5b 05 3f 3a dd 15 3f 8f c7 75 3d
       0.9118433 0.52093196 0.5854069 0.060004767
000230 21 8f a3 be 6a 93 d7 be 21 e7 06 3d b3 2a 73 be
       -0.31945136 -0.42104656 0.032935265 -0.23746757
000240 12 3e 1e be f6 bc d7 be a1 28 e9 be 2f 59 02 be
       -0.15453365 -0.42136353 -0.4553881 -0.12729333
000250 10 0a 3c be bf 56 47 3f 7b 9e f4 3e 17 50 7b be
       -0.18363214 0.7786674 0.4777716 -0.2454227
000260 ce 32 3f 3e 67 47 7f be f7 88 c7 be ae b1 1b bf
       0.18671724 -0.24929582 -0.38971683 -0.6081799
000270 b4 02 c0 3e ff 48 02 3f 12 a0 0a 3f 7c 4f ba be
       0.37502062 0.50892633 0.541505 -0.36388767
000280 b0 d1 bc be ef 4e 90 3e b2 88 05 3f a3 0b 6d 3e
       -0.3687873 0.28185222 0.52161705 0.2314897
000290 36 c9 1b be a4 d4 12 be a6 8e 38 3f 5a 21 e3 be
       -0.15213475 -0.14338928 0.72092664 -0.44361383
0002a0 0e b5 ba be 8a 0a f3 be 53 b3 ca 3e a7 d2 f0 3e
       -0.3646626 -0.47468978 0.3958994 0.47035715
0002b0 5d 27 12 bd 07 a6 d7 be d4 f7 02 3f 95 40 e5 3e
       -0.03568207 -0.42118856 0.51159406 0.44775835
0002c0 4d f9 e6 bc 23 81 6c bd eb f5 ec bd ee 32 76 3e
       -0.028195048 -0.057740342 -0.11570343 0.24042866
0002d0 bc 4e 79 3e 33 11 d8 3e a0 a4 8b be f6 d8 34 bf
       0.24346441 0.42200622 -0.27274036 -0.70643556
0002e0 5e f8 b0 3e 16 50 10 bf 5b 50 43 3f b0 5f 27 3f
       0.3456449 -0.563722 0.7629449 0.6538038
0002f0 1a cf 0a bf 05 2d 15 3f 9c 52 ea 3e 6b a1 3e 3f
       -0.5422226 0.5827182 0.4576615 0.74465054
000300 54 86 c6 3e a6 15 af 3e 8b cc 83 be b6 c8 d5 3e
       0.3877436 0.34196204 -0.2574199 0.41754693
000310 31 a2 af 3e dc 4b 0d 3f 2f 72 bf be b6 a7 9e be
       0.3430343 0.5519388 -0.37391803 -0.30987328
000320 b0 26 0d 3f 67 7f 73 3e 43 12 86 be c1 fc 79 3e
       0.5513716 0.23779069 -0.26185808 0.24412824
000330 61 d3 dd 3e a9 46 65 3f b6 b7 d9 3e 1a 61 81 be
       0.43325332 0.89560944 0.42522973 -0.25269395
000340 0c b2 44 bd c4 79 4e 3f 05 0b 62 bd db 98 58 3e
       -0.04802136 0.8065455 -0.05518629 0.2115206
000350 c4 dd ab be 31 7f 2c 3f 2c f9 ea 3e a4 d4 f2 be
       -0.3356763 0.6738158 0.45893228 -0.47427857
000360 b3 a0 ce 3e aa 9e 16 bf da de d3 be f3 78 39 bd
       0.4035698 -0.5883585 -0.4138096 -0.04528136
000370 ef bf e2 3e 2d 70 bd 3e 8f 79 80 3e e3 b7 0b bd
       0.4428706 0.36999646 0.25092742 -0.034110915
000380 8f e0 1b be 16 f9 fa 3e ef dc c2 3e e0 85 d5 3e
       -0.15222381 0.49018162 0.38059184 0.417037
000390 e8 50 d8 3e 0f 20 d2 3d a0 82 00 3f eb f7 8a 3e
       0.42249227 0.10260021 0.5019932 0.2714227
0003a0 c0 f1 a0 3e 20 2e d4 3e 0d 87 d5 3e 05 d4 e0 3e
       0.3143444 0.4144144 0.41704598 0.43911758
0003b0 31 cd 08 bf 76 ec 1b 3f ab 5f 04 3f 9c 45 a9 3e
       -0.534381 0.60907686 0.5170848 0.3306092
0003c0 e3 14 7c 3e 73 a6 89 3e 06 0f 1c bd 81 66 7d 3f
       0.24617343 0.26884803 -0.038100265 0.98984534
0003d0 8d 43 f5 3e 95 1f f9 3e 9c 44 67 be 74 c3 44 be
       0.479031 0.48656908 -0.22584766 -0.19215184
0003e0 81 a7 fe 3e ba e4 50 be bc d8 d4 be 85 63 2b 3e
       0.4973717 -0.20399752 -0.41571605 0.16737182
0003f0 79 a3 e6 3e ef 7c 02 3f cd 93 0c 3e 06 23 e3 3d
       0.45046595 0.50971884 0.13728257 0.110906646

l1.bias f4 [8]
000000 6e d1 2e 3f 0e bc d8 3e 1f a9 d7 3e bb 9d 16 3f
       0.68288314 0.42330974 0.42121217 0.5883443
000010 96 f2 b8 3e 5e 99 92 3f f5 b5 67 3f d8 1b 34 3f
       0.36122578 1.1453054 0.9051202 0.70354986

l2.weight f4 [8, 8]
000000 ef 32 74 be 00 3c 96 b9 88 ad 2e be b9 f0 9a be
       -0.23847555 -0.00028654933 -0.17058384 -0.30261782
000010 48 e4 80 3d 0b f4 65 be ec b6 97 bd 20 8d e1 bd
       0.06293541 -0.22456376 -0.074079365 -0.110132456
000020 e8 5c 5b bf 9d 42 70 3f 9f ee 0a 3f 7c cc 63 bf
       -0.8568864 0.93851644 0.54270357 -0.88983893
000030 dd f3 37 3f 12 82 3c bf 4f 6f 4d 3f 24 2e 53 be
       0.7185648 -0.7363597 0.8024797 -0.2062307
000040 fc 5e b0 bf 1b 7f 9a be 4f 7e ad 3f f6 e2 04 be
       -1.3778987 -0.301751 1.3554171 -0.12977204
000050 08 46 ac 3f fe 2d a0 3f 20 32 47 3f 07 5b d8 3e
       1.3458872 1.2514036 0.7781086 0.42256948
000060 aa e8 87 bf 2e 08 98 bf 7f 76 43 bd b4 11 58 bf
       -1.0617878 -1.1877496 -0.04772043 -0.8440201
000070 d6 9b 17 bf 83 fd a9 3f 96 e9 a4 3f 9a 86 fb be
       -0.5922216 1.3280491 1.2883785 -0.4912613
000080 2b 0f b6 3f 8b 07 a8 3f 93 4c 1f 3f db 7d 9f 3f
       1.4223379 1.3127302 0.6222622 1.2460283
000090 54 2a e2 3e 71 9f b1 3f d6 39 7f bf 77 97 0a 3f
       0.4417292 1.3876783 -0.99697626 0.54137367
0000a0 30 4c ae 3f f5 ad 2e bf f5 07 92 be c3 85 d2 3e
       1.3617 -0.6823419 -0.28521696 0.41117677
0000b0 cb bf 18 bf 68 26 5b 3f 4e 2b 58 3f 3f 7a 5b bf
       -0.5966765 0.8560548 0.8444108 -0.8573341
0000c0 de e7 e9 be 58 47 a6 3f ee e9 a2 bf 9a 62 bf 3d
       -0.45684713 1.2990522 -1.272764 0.09344979
0000d0 94 a9 4d bf 00 a1 24 3f f4 b2 81 3e 47 7a c2 3f
       -0.8033688 0.64308167 0.25331843 1.5193566
0000e0 7d 3c c2 3e 1b 67 87 3f 9f 11 82 3e 52 27 83 be
       0.37936774 1.057834 0.2540407 -0.25615937
0000f0 01 60 5a 3e f0 90 3d bf 5e 3f 9c 3f cd 9a ee 3e
       0.21325685 -0.7404928 1.2206838 0.4660248

l2.bias f4 [8]
000000 f8 d8 1a bd 27 e0 6a bd 62 4d 34 3e 2b 47 26 3f
       -0.037804574 -0.057342675 0.17607644 0.64952344
000010 e6 f3 bb 3e 82 5b 69 3f ce 19 44 3f 17 87 49 3c
       0.36709517 0.91155255 0.76601875 0.012300274

l3.weight f4 [10, 8]
000000 0b 57 8f 3e d7 86 87 bf 05 69 d6 3d 35 f8 94 bf
       0.27996096 -1.0588025 0.1046925 -1.1638247
000010 6a 19 0a 3f 33 b1 eb bf 3e 1f a5 bf bb 2d 57 bf
       0.5394503 -1.8413452 -1.2900159 -0.84054154
000020 70 90 86 3d 7e 34 9c be 98 4d f0 bf 0f 6b 14 bf
       0.06570518 -0.30508798 -1.877368 -0.5797586
000030 48 b3 c6 3e 52 a9 cd be 5c f2 48 3f 02 d5 1d bf
       0.38808656 -0.40168244 0.7849481 -0.6165315
000040 50 26 c9 3c 20 1e a8 bf d1 b8 c5 bf 6e 71 56 3d
       0.024554402 -1.3134193 -1.5447026 0.05235427
000050 10 96 93 bf 46 a5 73 3f 04 4d 23 3e 35 71 e0 3e
       -1.153017 0.9517406 0.15947348 0.4383637
000060 00 4f a1 bb 03 5c a1 bf d0 db 1f 3f 4a 08 4f be
       -0.0049227476 -1.2606205 0.6244478 -0.20218006
000070 58 2f aa 3d 64 e9 fa be 90 5e 22 bf e1 2e 05 c0
       0.08309811 -0.49006188 -0.6342554 -2.0809863
000080 20 2a 1c be fd c8 90 bf 20 a3 eb bd f9 7d 6c 3f
       -0.15250444 -1.1311337 -0.11505723 0.9237972
000090 bf 6d af bf dc 59 0a 3f 0f e7 dd 3e 5b 55 fc be
       -1.3705367 0.54043365 0.43340346 -0.4928387
0000a0 32 9a 1a 3e 8a 1a c8 3e df 1d 05 3f f1 8d b6 3e
       0.15097883 0.39082748 0.51998705 0.35655168
0000b0 9d 41 e1 bf 75 71 85 bf 53 d5 db bf ed 97 bd 3e
       -1.7598149 -1.0425249 -1.7174476 0.37029973
0000c0 b0 ae b0 3c 83 e4 10 3d fb 18 56 3f bb 4c be bf
       0.021567672 0.035374176 0.8363187 -1.4867166
0000d0 c5 e6 fb be aa 26 f7 bf 32 bb 23 bf 38 40 ac bc
       -0.491995 -1.9308674 -0.6395751 -0.021026716
0000e0 0e a5 8a be 44 52 d2 bf 3a 54 ff 3d d4 7c 89 bf
       -0.27079052 -1.6431355 0.12467237 -1.074122
0000f0 c0 53 49 bc a0 81 03 c0 59 11 3b 3f c1 51 0f bf
       -0.012288034 -2.0547867 0.73073345 -0.5598412
000100 05 e9 97 3e 23 cd 21 bf 94 09 19 bf b3 eb c0 bf
       0.29669967 -0.6320364 -0.5978024 -1.507193
000110 27 08 fc 3e 26 89 1d 3f 52 85 c2 bf 44 85 cb bf
       0.4922497 0.61537397 -1.5196936 -1.5900044
000120 e9 96 9c 3e 47 be 24 3f 12 51 2f bf 5d d3 6b 3e
       0.30583885 0.6435284 -0.6848308 0.23029847
000130 26 c3 f5 bf ca 3f 39 3e bf e5 1a be 80 51 d1 3e
       -1.920018 0.1809074 -0.15126704 0.40882492

l3.bias f4 [10]
000000 25 bd 04 be 44 97 94 3e 42 61 8b bc 0f 79 7b 3e
       -0.12962778 0.29021657 -0.01701415 0.24557899
000010 24 3c 18 3d 43 32 f3 bd ae 9e 2f be 28 21 38 be
       0.03716673 -0.11874821 -0.17150375 -0.17981398
000020 86 95 f7 3d 6f 84 2c be
       0.12089066 -0.16847394
